MNIST2/mnist_model.pt (torch, 2783 bytes, 3 tensors)

weight f4 [4, 10]
000000 2a e7 97 bd 34 52 a6 bd 8a 7f b6 3d 58 11 95 bd
       -0.07417138 -0.08121148 0.08911045 -0.07278699
000010 b0 b7 53 3d 26 5f 5d 3e 6e 36 8d 3d 79 c3 04 3e
       0.05168885 0.21618327 0.06895147 0.12965192
000020 26 94 fb bc c2 76 24 3e 54 56 b1 3e 60 3d bc 3d
       -0.030710291 0.16060928 0.34636176 0.09191394
000030 f1 40 1a be d1 0f 5c 3b f7 49 84 bd 77 d6 09 be
       -0.15063836 0.0033578763 -0.0645942 -0.13460718
000040 13 18 6d 3e 4e f9 56 3d b4 da 8f 3d b7 34 bd 3d
       0.23153715 0.05248385 0.07024136 0.0923857
000050 39 3b 40 be d1 68 26 bd 65 a6 c4 3c df b8 36 3c
       -0.18772592 -0.040627304 0.024005124 0.011152475
000060 27 4b cf bd c4 11 23 be 08 3c 93 bc 43 46 c1 bd
       -0.10121756 -0.15924746 -0.017972961 -0.094372295
000070 2e 3f 61 3d 69 67 0c bd eb fb 76 bd 73 65 b5 3e
       0.054991893 -0.034278307 -0.06029884 0.35428962
000080 cd 90 04 bf 3e 78 db 3d 3f 7b 80 3d 9a a4 93 3e
       -0.5178345 0.10716294 0.06273507 0.2883652
000090 eb ea 9e be 94 17 10 3c 45 c3 3f 3e 89 99 dc 3d
       -0.31038603 0.008794684 0.18726833 0.10771472

bias f4 [4]
000000 8c f0 2a 3c d7 f3 27 be 18 19 52 3f 90 69 f9 3e
       0.010433327 -0.16401611 0.8206954 0.4871335

weight f4 [1, 4]
000000 ac 82 4b 3e 92 c6 e8 be a9 37 8f 3e 80 f6 49 bf
       0.19874066 -0.45463997 0.27972153 -0.78891754
