MNIST2/mnist_model.pt (torch, 2783 bytes, 3 tensors)

weight f4 [4, 10]
-0.42570883 0.08891745 0.14207312 0.11413837 -0.058787275 -0.092904866 6.5196495e-05 0.04551972
-0.06659607 0.18632509 0.022188108 0.01929435 0.032649323 -0.15274015 -0.17754424 -0.29959595
-0.12458712 -0.26183048 0.07331642 -0.1549501 -0.027713938 -0.33407834 -0.034993228 -0.16681133
-0.05190195 0.033807896 0.03370193 -0.09359837 0.14548934 -0.07524604 0.00017245473 0.29093987
-0.38655838 0.08303025 0.09121039 0.22441089 -0.21306224 0.024553958 0.10584432 0.074096054
00000000: 82f6 d9be 5a1a b63d 9e7b 113e 61c1 e93d
00000010: edca 70bd e844 bebd 1aba 8838 e372 3a3d
00000020: 8563 88bd 01cc 3e3e d6c3 b53c 2f0f 9e3c
00000030: 4cbb 053d ea67 1cbe 28ce 35be a464 99be
00000040: 8827 ffbd a50e 86be eb26 963d 3dab 1ebe
00000050: 5708 e3bc 510c abbe 0f55 0fbd 97d0 2abe
00000060: 2497 54bd 267a 0a3d 090b 0a3d 81b0 bfbd
00000070: 28fb 143e 991a 9abd f7d4 3439 12f6 943e
00000080: fbea c5be c40b aa3d 83cc ba3d f8cb 653e
00000090: fd2c 5abe 6225 c93c e8c4 d83d acbf 973d

bias f4 [4]
0.4451507 -0.15004629 0.5011136 0.55391407
00000000: cbea e33e bca5 19be fb48 003f 50cd 0d3f

weight f4 [1, 4]
0.11168711 0.051818967 0.11535985 -1.0663894
00000000: 36bc e43d 2040 543d c941 ec3d 737f 88bf
