MNIST2/mnist_model.pt (torch, 2783 bytes, 3 tensors)

weight f4 [4, 10]
00000000: c29f 42bd 490b bd3e f944 cbbe 2e10 163d
00000010: 3b67 8c3d b03a 943e 3fa4 26be edf9 e63d
00000020: 26ec 6c3e 2309 2b3d f9d6 f1bd 9bcb cb3d
00000030: b089 513d f35a 5fbe bcda a8bc 827f fc3b
00000040: e5cf 7dbd 1e39 e8bc f4da 0fbd 3eb3 993d
00000050: 7cc6 9cbe e437 35be c970 1a3e 3b5a 3e3e
00000060: 529d febd 0759 9bbd 5e72 383e c1ee 973d
00000070: 24bf 233d 3e3b 9a3d 04d5 4e3d 3706 30be
00000080: 6aed 833d fde9 b7bd dcb0 5b3e 9216 893e
00000090: 8d4f e2bd 9d9c 84bc 0d0e 253e a389 f13c
-0.04751564 0.36922672 -0.3970106 0.036636524 0.06855627 0.28951025 -0.16273592 0.11278138
0.23136958 0.04175676 -0.11808581 0.09950944 0.0511567 -0.21812038 -0.020612113 0.00770563
-0.06196584 -0.028347548 -0.03512092 0.07504891 -0.30620182 -0.17697102 0.15082087 0.18589108
-0.1243235 -0.0758534 0.18012378 0.074185856 0.039977208 0.07530831 0.050496116 -0.17189871
0.064417675 -0.089801766 0.21454185 0.26775032 -0.11050329 -0.01618796 0.16118641 0.029484576

bias f4 [4]
00000000: b169 0f3f dc72 fabd 156f aa3e 721a a83e
0.5602065 -0.12228939 0.33287874 0.32832676

weight f4 [1, 4]
00000000: ba99 13bf 741a 303e 091b 073e fb58 3b3d
-0.57656443 0.17197591 0.13193907 0.045739155
