MNIST/mnist_model.pt (torch, 4887 bytes, 5 tensors)

weight f4 [10, 30]
-0.09240204 -0.10661463 0.3001686 -0.05519209 0.123757415 -0.18335313 0.17385148 0.093759276
-0.12961039 0.09309608 0.0694754 -0.10980293 -0.06955512 0.12465347 0.17679088 -0.06347057
-0.04954138 0.01319321 -0.030775337 0.24966776 0.03281299 0.052435186 0.0025554453 0.16159193
-0.059050728 0.09800563 -0.01198913 -0.057202395 0.044679955 -0.06056776 -0.049750373 -0.19223012
0.22815134 0.12586005 0.19144127 0.083182685 0.10336651 -0.029446186 0.1396424 -0.06129506
0.01310567 -0.06558472 -0.06052395 -0.0054749427 0.23995271 0.08177318 0.060177296 -0.02710907
-0.012682177 0.039318677 0.04475452 0.058980897 -0.06692026 0.22171585 -0.031928252 -0.032882
-0.22175291 -0.11560491 -0.1203104 0.0731197 -0.1090042 -0.18037644 0.26475477 0.081109434
0.14421825 -0.18398058 0.13273443 0.015740575 0.085633665 -0.15518779 -0.03145659 0.023633389
0.040909186 -0.039659545 0.06607206 -0.031608537 0.17393355 -0.009641287 -0.1168147 0.031818192
0.071748234 -0.022476157 -0.062088136 0.15177949 0.012382665 -0.07864235 0.09501473 -0.15900251
0.026858516 -0.10962582 -0.09185525 0.037483163 0.099706635 -0.04220314 0.23972195 -0.035642587
0.16117835 -0.033214778 -0.12296438 0.0789841 0.07117639 0.12565826 0.21973619 -0.24072918
0.13882199 0.25989252 -0.037420083 -0.082045764 0.1400471 -0.037547763 0.13433078 -0.1058431
0.07049305 -0.09383114 -0.08707716 -0.03910071 0.00073326874 -0.10429643 -0.003931746 -0.012044173
0.098425314 -0.12513195 0.05740825 0.0776767 0.08031048 -0.12244063 0.5208246 0.06164437
-0.020219136 -0.1692162 -0.11002256 0.25059208 0.06561738 -0.07796964 0.5246028 0.23199686
0.05182378 -0.080787316 0.0831613 0.10468285 0.07095053 -0.18395072 0.112148374 0.30740795
-0.2304425 0.14302348 -0.11678246 -0.28972828 0.08797597 0.03332982 -0.06940022 0.2859611
-0.03112962 0.136832 -0.016416196 0.09340421 -0.32761008 0.18968095 0.20796245 0.082979284
-0.17248024 -0.15401404 0.24644347 0.025559427 -0.13616557 -0.035428822 -0.017547607 0.008861129
0.41290858 0.021183504 0.08721385 -0.0956558 -0.017755872 -0.10650933 0.03531642 -0.07356463
-0.014638877 -0.072275065 -0.00088628125 -0.103573605 -0.21445933 -0.23104587 -0.0651769 -0.00040338782
0.03153397 -0.068430506 0.119386286 -0.20220253 -0.047996823 0.03194515 0.087135054 0.11440407
0.012483193 -0.016646069 0.1467594 0.105972946 0.0015837121 -0.1087567 0.16618763 -0.114092335
0.009526069 0.03631727 0.13164145 0.052089795 -0.17878564 0.09828517 -0.1420112 -0.15835752
0.06679432 -0.0745553 0.024329208 0.027316427 0.1472847 -0.07595602 -0.2113774 0.07896857
0.037459787 -0.027088873 -0.15749885 0.10585156 0.06595732 -0.009977769 0.046580862 -0.09470646
-0.073378876 0.010664853 -0.020973407 -0.077756524 -0.027924547 0.12309676 0.17419004 -0.02738609
0.009265816 0.05726719 0.2064967 0.08285703 0.16390055 0.049221985 -0.1283011 -0.33534622
0.020452341 -0.14961551 0.0433585 -0.22274083 -0.08003625 0.09774338 -0.08692155 0.011343645
-0.01510519 -0.030359779 0.28006002 -0.060022317 0.07178948 -0.06765717 0.15529585 -0.014280496
00000000: 483d bdbd c558 dabd b3af 993e 1a11 62bd
00000010: 8774 fd3d ecc0 3bbe 1f06 323e dd04 c03d
00000020: 96b8 04be 28a9 be3d 1e49 8e3d 5ce0 e0bd
00000030: ea72 8ebd 524a ff3d ab08 353e dcfc 81bd
00000040: e7eb 4abd 5528 583c 8f1c fcbc e8a8 7f3e
00000050: ea66 063d 47c6 563d 4279 273b 5b78 253e
00000060: 2ddf 71bd 2db7 c83d 0e6e 44bc 0f4d 6abd
00000070: 5402 373d e615 78bd 0cc7 4bbd f9d7 44be
00000080: 81a0 693e 75e1 003e 2e09 443e af5b aa3d
00000090: d2b1 d33d 2139 f1bc 6bfe 0e3e 8710 7bbd
000000a0: 2ab9 563c 4851 86bd f6e7 77bd 2667 b3bb
000000b0: 2ab6 753e b278 a73d 787c 763d d713 debc
000000c0: e8c8 4fbc 9f0c 213d 8450 373d f495 713d
000000d0: 7d0d 89bd 7b09 633e 33c7 02bd 47af 06bd
000000e0: 3213 63be 44c2 ecbd 4d65 f6bd c8bf 953d
000000f0: 983d dfbd 9ab4 38be f08d 873e b41c a63d
00000100: f3ad 133e 6865 3cbe 89eb 073e 61f2 803c
00000110: b460 af3d 8ce9 1ebe a0d8 00bd cf9a c13c
00000120: 6490 273d 0c72 22bd ca50 873d f477 01bd
00000130: a31b 323e 7df6 1dbc 8c3c efbd cb53 023d
00000140: bdf0 923d eb1f b8bc 2150 7ebd 156c 1b3e
00000150: a9e0 4a3c 3e0f a1bd 1597 c23d 8ed1 22be
00000160: 6406 dc3c 8083 e0bd 9b1e bcbd f287 193d
00000170: fe32 cc3d 33dd 2cbd ac79 753e f6fd 11bd
00000180: f00b 253e 380c 08bd c0d4 fbbd 6ac2 a13d
00000190: edc4 913d 8fac 003e 8602 613e b681 76be
000001a0: 5a27 0e3e a210 853e cd45 19bd 9c07 a8bd
000001b0: 8268 0f3e afcb 19bd 028e 093e 44c4 d8bd
000001c0: a95e 903d 8a2a c0bd 8355 b2bd 1128 20bd
000001d0: d538 403a 5e99 d5bd e0d5 80bb ec54 45bc
000001e0: 3693 c93d 9722 00be ea24 6b3d f614 9f3d
000001f0: d279 a43d 27c2 fabd c354 053f cf7e 7c3d
00000200: 9aa2 a5bc 0347 2dbe 8253 e1bd 9b4d 803e
00000210: 6862 863d 8cae 9fbd 5e4c 063f 9690 6d3e
00000220: 2c45 543d d273 a5bd 7950 aa3d f663 d63d
00000230: 834e 913d 945d 3cbe 0cae e53d 9364 9d3e
00000240: 1ef9 6bbe bf74 123e a42b efbd 4457 94be
00000250: bf2c b43d d984 083d b421 8ebd 7e69 923e
00000260: 8b03 ffbc b01d 0c3e 427b 86bc b54a bf3d
00000270: 82bc a7be b93b 423e 1cf4 543e 0bf1 a93d
00000280: a99e 30be dbb5 1dbe ad5b 7c3e 0162 d13c
00000290: fd6e 0bbe d01d 11bd 00c0 8fbc 452e 113c
000002a0: c168 d33e 0789 ad3c 2d9d b23d 30e7 c3bd
000002b0: c374 91bc 9021 dabd f3a7 103d 0da9 96bd
000002c0: e6d7 6fbc f304 94bd 5455 68ba 661e d4bd
000002d0: 3a9b 5bbe 4a97 6cbe 777b 85bd cc7d d3b9
000002e0: c429 013d 4b25 8cbd cc80 f43d 2e0e 4fbe
000002f0: 5198 44bd ebd8 023d dd73 b23d ae4c ea3d
00000300: 4e86 4c3c 565d 88bc 1948 163e 5808 d93d
00000310: 8f94 cf3a d5bb debd 172d 2a3e 3ea9 e9bd
00000320: 3b13 1c3c 6bc1 143d 04cd 063e 1c5c 553d
00000330: 9513 37be bc49 c93d 626b 11be 7928 22be
00000340: 76cb 883d 73b0 98bd 0c4e c73c b3c6 df3c
00000350: cdd1 163e d48e 9bbd 5173 58be 46ba a13d
00000360: 6f6f 193d 7ce9 ddbc 6147 21be b4c8 d83d
00000370: a214 873d cc79 23bc 93cb 3e3d 76f5 c1bd
00000380: aa47 96bd a3bb 2e3c 6cd0 abbc d03e 9fbd
00000390: 05c2 e4bc 271a fc3d e05e 323e cb58 e0bc
000003a0: a6cf 173c 0091 6a3d df73 533e f2b0 a93d
000003b0: 8cd5 273e fe9c 493d 5d61 03be 80b2 abbe
000003c0: ab8b a73c cf34 19be af98 313d 2c16 64be
000003d0: 0cea a3bd ae2d c83d ed03 b2bd b2da 393c
000003e0: c27b 77bc 12b5 f8bc 0764 8f3e f6d9 75bd
000003f0: 5d06 933d d88f 8abd e005 1f3e bef8 69bc

bias f4 [10]
-0.03016868 0.12023768 0.078570694 0.12071637 -0.09502097 0.2896739 -0.1669331 -0.20698127
0.16583727 0.08337265
00000000: 4f24 f7bc 2c3f f63d ace9 a03d 253a f73d
00000010: 5b9a c2bd 2350 943e 83f0 2abe e6f2 53be
00000020: 3fd1 293e 48bf aa3d

weight f4 [10, 10]
0.05856494 0.26685444 0.10092008 0.096561804 -0.2509253 -0.113604344 0.30561826 0.09848139
0.14235269 0.16939566 -0.26282734 0.1336406 -0.18256597 0.20802896 -0.25876644 -0.34293646
0.04342068 0.055744097 0.09310731 -0.06012576 0.009848985 0.17608896 0.16769841 0.092220075
-0.15829915 -0.2679477 0.26204666 0.09251293 0.23339751 -0.1237663 0.08670138 -0.00013744865
0.28404614 -0.049589466 -0.16338965 -0.008387496 0.25224897 0.18168364 0.1453839 0.05446189
0.33940217 -0.015161752 0.05098236 0.03866028 -0.46734563 -0.017901318 -0.05320587 0.07988117
-0.12233084 0.16136724 0.06932601 -0.17325892 0.20631094 0.062342726 -0.23907405 -0.1464141
0.03403976 0.092647575 0.1330442 -0.009705712 0.009876658 0.21619584 0.042071346 0.1269301
-0.13679774 -0.24855651 0.04836475 -0.0289521 -0.3238639 0.023386376 0.2628849 -0.22758503
0.20018956 -0.15705788 -0.21535516 -0.09210624 -0.1617623 -0.050880246 -0.2878466 0.036411185
-0.3087277 -0.23080924 -0.35492638 0.12887469 -0.05071865 -0.31425837 0.08443374 -0.32980344
-0.086927325 0.08119129 -0.2817157 0.06281328 0.05585526 -0.2327386 0.011016868 -0.29606786
-0.03397725 0.017155094 -0.2874276 -0.38888445
00000000: cae1 6f3d 25a1 883e 30af ce3d 32c2 c53d
00000010: 4879 80be 65a9 e8bd ff79 9c3e 9cb0 c93d
00000020: e7c4 113e 0e76 2d3e 4e91 86be 15d9 083e
00000030: 93f2 3abe 8b05 553e 097d 84be 5e95 afbe
00000040: e2d9 313d ec53 643d 0caf be3d 6e46 76bd
00000050: a35d 213c aa50 343e 22b9 2b3e e1dd bc3d
00000060: 2c19 22be 7130 89be fb2a 863e 6b77 bd3d
00000070: c2ff 6e3e 3079 fdbd 7e90 b13d 1720 10b9
00000080: 7f6e 913e 531e 4bbd 9e4f 27be b56b 09bc
00000090: c726 813e 470b 3a3e 84df 143e 6e13 5f3d
000000a0: 1fc6 ad3e ff68 78bc e1d2 503d 3e5a 1e3d
000000b0: ed47 efbe c9a5 92bc 66ee 59bd bd98 a33d
000000c0: 9788 fabd 743d 253e ccfa 8d3d c96a 31be
000000d0: 2d43 533e 165b 7f3d d4cf 74be 94ed 15be
000000e0: 466d 0b3d 03be bd3d bd3c 083e b504 1fbc
000000f0: b5d1 213c 7162 5d3e 0153 2c3d f7f9 013e
00000100: b514 0cbe 9985 7ebe 1e1a 463d f42c edbc
00000110: 7dd1 a5be c994 bf3c da98 863e 0d0c 69be
00000120: 7efe 4c3e c8d3 20be 1086 5cbe 32a2 bcbd
00000130: 04a5 25be ce67 50bd a160 93be e523 153d
00000140: 8f11 9ebe 4259 6cbe e9b8 b5be baf7 033e
00000150: 5cbe 4fbd 79e6 a0be 99eb ac3d ffdb a8be
00000160: f406 b2bd 9e47 a63d 0a3d 90be 40a4 803d
00000170: 7cc8 643d 0753 6ebe 1880 343c 3596 97be
00000180: bb2b 0bbd d788 8c3c b629 93be dd1b c7be

bias f4 [10]
-0.23236401 0.053400427 -0.01067756 -0.32018405 -0.09911945 0.056532405 0.04836189 -0.19833894
-0.35127825 -0.40536493
00000000: d5f0 6dbe 68ba 5a3d eff0 2ebc 2aef a3be
00000010: 23ff cabd 868e 673d 1e17 463d 5d19 4bbe
00000020: beda b3be fe8b cfbe

weight f4 [1, 10]
0.29622105 0.076720156 0.054620065 0.1677691 0.2257172 0.2486524 0.17018758 0.1453705
0.12763011 0.034349725
00000000: 49aa 973e 751f 9d3d 4ab9 5f3d aacb 2b3e
00000010: 6922 673e bc9e 7e3e a745 2e3e 01dc 143e
00000020: 78b1 023e 4cb2 0c3d
